…
""step_size"":                    1
""stride"":                       24
""val_check_steps"":              100
""valid_batch_size"":             None
""valid_loss"":                   None
""windows_batch_size"":           1024",cpu,100,OrderedDict(),set(),100000000.0,False,{},None,{},None,[],None,OrderedDict(),0.001,None,OrderedDict(),0,True,"{'loss': DistributionLoss(), 'valid_loss': DistributionLoss(), 'padder_train': ConstantPad1d(padding=(0, 12), value=0.0), 'scaler': TemporalNorm(), 'model': PatchTST_backbone(
  (padding_patch_layer): ReplicationPad1d((0, 24))
  (backbone): TSTiEncoder(
    (W_P): Linear(in_features=24, out_features=128, bias=True)
    (dropout): Dropout(p=0.2, inplace=False)
    (encoder): TSTEncoder(
      (layers): ModuleList(
        (0-2): 3 x TSTEncoderLayer(
          (self_attn): _MultiheadAttention(
            (W_Q): Linear(in_features=128, out_features=128, bias=True)
            (W_K): Linear(in_features=128, out_features=128, bias=True)
            (W_V): Linear(in_features=128, out_features=128, bias=True)
            (sdp_attn): _ScaledDotProductAttention(
              (attn_dropout): Dropout(p=0.0, inplace=False)
            )
            (to_out): Sequential(
              (0): Linear(in_features=128, out_features=128, bias=True)
              (1): Dropout(p=0.2, inplace=False)
            )
          )
          (dropout_attn): Dropout(p=0.2, inplace=False)
          (norm_attn): Sequential(
            (0): Transpose()
            (1): BatchNorm1d(128, eps=1e-05, momentum=0.1, affine=True, track_running_stats=True)
            (2): Transpose()
          )
          (ff): Sequential(
            (0): Linear(in_features=128, out_features=256, bias=True)
            (1): GELU(approximate='none')
            (2): Dropout(p=0.2, inplace=False)
            (3): Linear(in_features=256, out_features=128, bias=True)
          )
          (dropout_ffn): Dropout(p=0.2, inplace=False)
          (norm_ffn): Sequential(
            (0): Transpose()
            (1): BatchNorm1d(128, eps=1e-05, momentum=0.1, affine=True, track_running_stats=True)
            (2): Transpose()
          )
        )
      )
    )
  )
  (head): Flatten_Head(
    (flatten): Flatten(start_dim=-2, end_dim=-1)
    (linear): Linear(in_features=512, out_features=36, bias=True)
    (dropout): Dropout(p=0.0, inplace=False)
  )
)}",PatchTST run 1,44d9fc92998b410eb69b9befb07d3759,LOCAL,phamminhtuan,013ca0b626690638b5458b04b38a574a00388b8e,/Users/phamminhtuan/Desktop/VHT_work/MLOps/src/pipelines/train_patchtst_pipeline.py
44d9fc92998b410eb69b9befb07d3759,769503152781081453,FINISHED,file:///Users/phamminhtuan/Desktop/VHT_work/MLOps
…
